…
    "  model.compile(\n",
    "      loss=\"mean_squared_error\",\n",
    "      optimizer=opt,\n",
    "  )\n",
    "  return model"
   ]
  },
  {
   "cell_type": "code",
   "execution_count": 23,
   "metadata": {},
   "outputs": [
    {
     "name": "stdout",
     "output_type": "stream",
     "text": [
      "Model: \"sequential\"\n",
      "_________________________________________________________________\n",
      "Layer (type)                 Output Shape              Param #   \n",
      "=================================================================\n",
      "lstm (LSTM)                  (None, 128)               71168     \n",
      "_________________________________________________________________\n",
      "dense (Dense)                (None, 32)                4128      \n",
      "_________________________________________________________________\n",
      "dropout (Dropout)            (None, 32)                0         \n",
      "_________________________________________________________________\n",
      "dense_1 (Dense)              (None, 32)                1056      \n",
      "_________________________________________________________________\n",
      "dropout_1 (Dropout)          (None, 32)                0         \n",
      "_________________________________________________________________\n",
      "dense_2 (Dense)              (None, 2)                 66        \n",
      "=================================================================\n",
      "Total params: 76,418\n",
      "Trainable params: 76,418\n",
      "Non-trainable params: 0\n",
      "_________________________________________________________________\n"
     ]
    }
   ],
   "source": [
    "model_final=models()\n",
    "model_final.summary()"
   ]
  },
  {
   "cell_type": "code",
   "execution_count": 24,
…
    "  model.compile(\n",
    "      loss=\"mean_squared_error\",\n",
    "      optimizer=opt,\n",
    "  )\n",
    "  return model"
   ]
  },
  {
   "cell_type": "code",
   "execution_count": 28,
   "metadata": {},
   "outputs": [
    {
     "name": "stdout",
     "output_type": "stream",
     "text": [
      "Model: \"sequential_1\"\n",
      "_________________________________________________________________\n",
      "Layer (type)                 Output Shape              Param #   \n",
      "=================================================================\n",
      "lstm_1 (LSTM)                (None, 32)                5504      \n",
      "_________________________________________________________________\n",
      "dense_3 (Dense)              (None, 32)                1056      \n",
      "_________________________________________________________________\n",
      "dropout_2 (Dropout)          (None, 32)                0         \n",
      "_________________________________________________________________\n",
      "dense_4 (Dense)              (None, 32)                1056      \n",
      "_________________________________________________________________\n",
      "dropout_3 (Dropout)          (None, 32)                0         \n",
      "_________________________________________________________________\n",
      "dense_5 (Dense)              (None, 2)                 66        \n",
      "=================================================================\n",
      "Total params: 7,682\n",
      "Trainable params: 7,682\n",
      "Non-trainable params: 0\n",
      "_________________________________________________________________\n"
     ]
    }
   ],
   "source": [
    "model_final2=models()\n",
    "model_final2.summary()"
   ]
  },
  {
   "cell_type": "code",
   "execution_count": 29,
…
    "  model.compile(\n",
    "      loss=\"mean_squared_error\",\n",
    "      optimizer=opt,\n",
    "  )\n",
    "  return model"
   ]
  },
  {
   "cell_type": "code",
   "execution_count": 35,
   "metadata": {},
   "outputs": [
    {
     "name": "stdout",
     "output_type": "stream",
     "text": [
      "Model: \"sequential_2\"\n",
      "_________________________________________________________________\n",
      "Layer (type)                 Output Shape              Param #   \n",
      "=================================================================\n",
      "lstm_2 (LSTM)                (None, 16, 16)            1728      \n",
      "_________________________________________________________________\n",
      "lstm_3 (LSTM)                (None, 16)                2112      \n",
      "_________________________________________________________________\n",
      "dense_6 (Dense)              (None, 32)                544       \n",
      "_________________________________________________________________\n",
      "dropout_4 (Dropout)          (None, 32)                0         \n",
      "_________________________________________________________________\n",
      "dense_7 (Dense)              (None, 32)                1056      \n",
      "_________________________________________________________________\n",
      "dropout_5 (Dropout)          (None, 32)                0         \n",
      "_________________________________________________________________\n",
      "dense_8 (Dense)              (None, 2)                 66        \n",
      "=================================================================\n",
      "Total params: 5,506\n",
      "Trainable params: 5,506\n",
      "Non-trainable params: 0\n",
      "_________________________________________________________________\n"
     ]
    }
   ],
   "source": [
    "model_final3=models()\n",
    "model_final3.summary()"
   ]
  },
  {
   "cell_type": "code",
   "execution_count": 36,
…
    "  model.compile(\n",
    "      loss=\"mean_squared_error\",\n",
    "      optimizer=opt,\n",
    "  )\n",
    "  return model"
   ]
  },
  {
   "cell_type": "code",
   "execution_count": 51,
   "metadata": {},
   "outputs": [
    {
     "name": "stdout",
     "output_type": "stream",
     "text": [
      "Model: \"sequential_5\"\n",
      "_________________________________________________________________\n",
      "Layer (type)                 Output Shape              Param #   \n",
      "=================================================================\n",
      "lstm_9 (LSTM)                (None, 16, 16)            1728      \n",
      "_________________________________________________________________\n",
      "lstm_10 (LSTM)               (None, 16, 16)            2112      \n",
      "_________________________________________________________________\n",
      "lstm_11 (LSTM)               (None, 16, 16)            2112      \n",
      "_________________________________________________________________\n",
      "lstm_12 (LSTM)               (None, 16)                2112      \n",
      "_________________________________________________________________\n",
      "dense_15 (Dense)             (None, 16)                272       \n",
      "_________________________________________________________________\n",
      "dropout_10 (Dropout)         (None, 16)                0         \n",
      "_________________________________________________________________\n",
      "dense_16 (Dense)             (None, 16)                272       \n",
      "_________________________________________________________________\n",
      "dropout_11 (Dropout)         (None, 16)                0         \n",
      "_________________________________________________________________\n",
      "dense_17 (Dense)             (None, 2)                 34        \n",
      "=================================================================\n",
      "Total params: 8,642\n",
      "Trainable params: 8,642\n",
      "Non-trainable params: 0\n",
      "_________________________________________________________________\n"
     ]
    }
   ],
   "source": [
    "model_final4=models()\n",
    "model_final4.summary()"
   ]
  },
  {
   "cell_type": "code",
   "execution_count": 52,
…
    "  model.compile(\n",
    "      loss=\"mean_squared_error\",\n",
    "      optimizer=opt,\n",
    "  )\n",
    "  return model"
   ]
  },
  {
   "cell_type": "code",
   "execution_count": 56,
   "metadata": {},
   "outputs": [
    {
     "name": "stdout",
     "output_type": "stream",
     "text": [
      "Model: \"sequential_6\"\n",
      "_________________________________________________________________\n",
      "Layer (type)                 Output Shape              Param #   \n",
      "=================================================================\n",
      "lstm_13 (LSTM)               (None, 16, 64)            19200     \n",
      "_________________________________________________________________\n",
      "lstm_14 (LSTM)               (None, 16, 64)            33024     \n",
      "_________________________________________________________________\n",
      "lstm_15 (LSTM)               (None, 16, 64)            33024     \n",
      "_________________________________________________________________\n",
      "lstm_16 (LSTM)               (None, 64)                33024     \n",
      "_________________________________________________________________\n",
      "dense_18 (Dense)             (None, 16)                1040      \n",
      "_________________________________________________________________\n",
      "dropout_12 (Dropout)         (None, 16)                0         \n",
      "_________________________________________________________________\n",
      "dense_19 (Dense)             (None, 16)                272       \n",
      "_________________________________________________________________\n",
      "dropout_13 (Dropout)         (None, 16)                0         \n",
      "_________________________________________________________________\n",
      "dense_20 (Dense)             (None, 2)                 34        \n",
      "=================================================================\n",
      "Total params: 119,618\n",
      "Trainable params: 119,618\n",
      "Non-trainable params: 0\n",
      "_________________________________________________________________\n"
     ]
    }
   ],
   "source": [
    "model_final6=models()\n",
    "model_final6.summary()"
   ]
  },
  {
   "cell_type": "code",
…
